trained/IDHPSAC_DC_citation_tracking_attitude_1659358080/agent_lat/model.npz (npz, 1542 bytes, 4 tensors)

x f8 [6, 1]
-0.000650772824883461 2.543441951274872e-06 7.87738463259302e-06 0.00017595291137695312 0.00011587142944335938 0.0001100301742553711
00000000: 0000 0000 1453 45bf 0000 0000 0056 c53e
00000010: 0000 0080 2385 e03e 0000 0000 0010 273f
00000020: 0000 0000 0060 1e3f 0000 0000 00d8 1c3f

theta f8 [6, 4]
0.9543575384494706 -0.004695477620350936 0.0005464495083942541 0.009777526671742863 -0.11755431007558406 0.9508599319286781 -0.009264734305451616 -0.0004966000764333506
0.024462517724085066 0.053511792132606414 0.9979021979227254 7.15987763904572e-05 -0.008135819369739198 -0.00012351997959562884 0.0010879693604626116 0.999944151725726
-0.11130597106336466 -0.007050129607501101 -1.6235518246849334e-05 -0.0005802532534930119 -0.175120184682964 -0.04978569257218008 0.0005194012595012575 -0.0008441909818919601
00000000: f79b 0ad2 188a ee3f fb9a 18ad 903b 73bf
00000010: 3a69 3c62 f3e7 413f 1fc5 536a 3d06 843f
00000020: 424a 470d 0a18 bebf 14bc d6ce 716d ee3f
00000030: 46cb c896 63f9 82bf 2e4b 328b c845 40bf
00000040: 6a3b 69c6 b30c 993f b6dd 51ca e565 ab3f
00000050: 72e8 1597 d0ee ef3f c70f b49c e9c4 123f
00000060: 8f1b f430 83a9 80bf eef5 a78b a430 20bf
00000070: bd87 9f34 46d3 513f 6da1 afe0 8aff ef3f
00000080: 8511 9151 8c7e bcbf a967 8cc1 98e0 7cbf
00000090: 74ad 8651 3006 f1be 2c9d a25f 8403 43bf
000000a0: 8999 0a95 566a c6bf 89fc cfa2 827d a9bf
000000b0: 09cd 26b6 0d05 413f 51b1 5354 96a9 4bbf

cov f8 [6, 6]
518.1385815436424 -266.4748967444767 1707.2912881167556 0.2680279580839267 -563.6077075341775 148.34380098671303 -266.4748967439487 11404.400003068527
-3449.350720093788 64.50457987986405 -1937.7033242353184 5676.602418982573 1707.291288116383 -3449.3507200956656 26922.26111667069 -505.1627209415155
-731.759799506634 -3503.987960458138 0.2680279580995389 64.50457987999513 -505.1627209415413 593.666085303765 -60.22454867648656 34.084091718865494
-563.6077075344625 -1937.7033242370253 -731.7597995065465 -60.22454867646494 1733.6618752811098 -2050.6398065820435 148.34380098730378 5676.602418983095
-3503.987960456248 34.084091718736495 -2050.6398065804533 5853.606075016238
00000000: 30ee a3d0 1b31 8040 1228 542d 99a7 70c0
00000010: b79c 6e47 2aad 9a40 7d95 98bc 5e27 d13f
00000020: 9a86 c495 dc9c 81c0 7b48 ed6a 008b 6240
00000030: c903 542d 99a7 70c0 d0f0 4c33 3346 c640
00000040: bd89 9591 b3f2 aac0 168f 6809 4b20 5040
00000050: b574 3a34 d046 9ec0 a464 2138 9a2c b640
00000060: 5096 6e47 2aad 9a40 de99 9591 b3f2 aac0
00000070: 43b2 22b6 904a da40 ef22 4681 9a92 7fc0
00000080: 1484 c311 14de 86c0 e302 f4d5 f95f abc0
00000090: 19e0 9cbc 5e27 d13f 1eb3 6809 4b20 5040
000000a0: b524 4681 9a92 7fc0 2320 8824 548d 8240
000000b0: 58ef d202 be1c 4ec0 2432 7784 c30a 4140
000000c0: 6590 c495 dc9c 81c0 0892 3a34 d046 9ec0
000000d0: 1381 c311 14de 86c0 75e3 d202 be1c 4ec0
000000e0: 9739 a2c2 a516 9b40 4973 ba94 4705 a0c0
000000f0: ac99 ed6a 008b 6240 e266 2138 9a2c b640
00000100: a7f2 f3d5 f95f abc0 39eb 7684 c30a 4140
00000110: a065 ba94 4705 a0c0 aa75 bb27 9bdd b640

epsilon f8 [1, 4]
6.943967960878583e-06 9.539137149024974e-07 -8.438479014743083e-08 1.4849565635783484e-07
00000000: 8057 0461 0720 dd3e e8a7 af38 0701 b03e
00000010: 80b5 76ed e0a6 76be 00d4 519b 45ee 833e
