trained/IDHPSAC_DC_citation_tracking_attitude_1659358080/agent_lon/model.npz (npz, 1262 bytes, 4 tensors)

x f8 [4, 1]
00000000: 0000 0000 0084 3b3f 0000 0000 c0f5 3b3f
00000010: 0000 0000 a0be 493f 0000 0000 00e2 26bf
0.00041985511779785156 0.00042663514614105225 0.0007856637239456177 -0.00017458200454711914

theta f8 [4, 3]
00000000: 9602 a0ac eced eb3f 310f fc07 275d 803f
00000010: 7429 b836 094a 833f d8af a52b 7bfe ab3f
00000020: ef09 dde3 e991 ef3f d0be 1c77 54b0 2a3f
00000030: faa3 ba37 bf9a aabf cb14 fa43 f3a5 41bf
00000040: b367 c7f4 0bfe ef3f 2931 5622 78a1 cbbf
00000050: 7b1e 6f5f 4ec4 6dbf 6a40 d749 668a 50bf
0.8727935191710283 0.007990174227877485 0.009418556196597129 0.0546759119777957 0.9865617227990792 0.0002036192996057646 -0.05196187548910554 -0.0005385816402429187
0.9997615605200195 -0.21586515118213725 -0.0036336451262036196 -0.0010095595274499888

cov f8 [4, 4]
00000000: 76c8 be9c 861a d040 290c 6aae 7012 dfc0
00000010: 0519 3cb6 e243 c440 823c eae0 9053 a440
00000020: f50b 6aae 7012 dfc0 b9d6 0f23 5013 f740
00000030: cb15 cb6c 0f3b dac0 4564 08e9 6db0 d940
00000040: f918 3cb6 e243 c440 da15 cb6c 0f3b dac0
00000050: d6ca cc27 7dbc c040 524a 12ed 718e b1c0
00000060: 003e eae0 9053 a440 ea63 08e9 6db0 d940
00000070: e049 12ed 718e b1c0 b809 a60d 5bf3 df40
16490.1033169706 -31817.760645400882 10375.771186363427 2601.7829659651625 -31817.760645400693 94517.0085600269 -26860.241015216143 26305.717348192138
10375.771186363405 -26860.241015216197 8568.977777098695 -4494.4450236731955 2601.782965965336 26305.717348191807 -4494.445023673092 32717.422708043567

epsilon f8 [1, 3]
00000000: 4078 3086 bcd0 ed3e 0088 fef0 cfe7 833e
00000010: 0000 6257 4a4e 603e
1.4217079472852415e-05 1.483076563754183e-07 3.037195998954051e-08
