trained/IDHPSAC_citation_tracking_attitude_1659271870/model.npz (npz, 2478 bytes, 4 tensors)

x f8 [10, 1]
00000000: 0000 0000 4bea 4cbf 0000 0000 4093 3c3f
00000010: 0000 0000 0022 fdbe 0000 0000 c0e0 333f
00000020: 0000 0000 b41b 463f 0000 0000 001d 033f
00000030: 0000 0000 8058 a23e 0000 0000 00cc 2dbf
00000040: 0000 0000 00b8 1e3f 0000 0000 00a0 243f
-0.0008824220858514309 0.00043602287769317627 -2.7783215045928955e-05 0.00030331313610076904 0.0006746891885995865 3.645569086074829e-05 5.467445589601994e-07 -0.00022733211517333984
0.00011718273162841797 0.00015735626220703125

theta f8 [10, 7]
00000000: 5ec0 053e e4cd ef3f b141 2e7c 009f 743f
00000010: b87f 199f 63bf 74bf b4ca 194a 631a fa3e
00000020: 4a75 b7f8 a34e d43e e1e5 6561 ef6a 843f
00000030: 4690 624f ef88 473f d480 18f1 8d55 e2bf
00000040: f93d 16d6 ba24 ee3f 978c de90 9f6f a9bf
00000050: afbe ec1b 1536 823f 9603 4d93 fcc8 833f
00000060: 212f c11a 548c 69bf 1f9c 5696 52ad 303f
00000070: 5adf b855 69ef c3bf 7966 44d4 8431 5e3f
00000080: 1ae2 aee7 2793 ee3f ca7b 0c54 706b 423f
00000090: e87b 6082 a2da 3abf ddf2 fe8e 731f 4abf
000000a0: 7eff 4c92 b263 83bf 429d 9cd7 987f e33f
000000b0: 6d53 b14c 9775 a8bf e5ce 5658 47c7 a53f
000000c0: 77d5 c4fd d682 ef3f eb56 7ea0 80cf 2cbf
000000d0: 82a5 56b0 e645 6d3f add8 c6e3 cb11 11bf
000000e0: c3b5 ee55 a11b d1bf db3b 8704 a880 86bf
000000f0: 37da b594 f66a 9abf 4b6f e660 cc0f 1b3f
00000100: 2387 431e e7fe ef3f 25ae 6518 2ac0 58bf
00000110: fbde 8a27 3027 2e3f becc 3db2 92c8 b9bf
00000120: 9590 66c1 368c 6cbf 5f3f 3848 b7f7 82bf
00000130: ccad a747 7471 1b3f 583a f131 fd2b 02bf
00000140: 6152 1c13 f5fb ef3f 331a 3637 011f 503f
00000150: d5bd 8131 11bd b63f fabc bd45 e9df 613f
00000160: d057 0a11 c2fe a53f 38f1 81cf a2ad 493f
00000170: c2a8 789b 6c21 12bf cfb5 0cfd eb0d 413f
00000180: cb73 a394 51f4 ef3f 572d 5210 7356 eebf
00000190: 469c d3cd 009a c8bf 0ae1 7ff0 3835 b8bf
000001a0: e4a2 2115 bb76 68bf 65bc 2170 11b1 51bf
000001b0: b264 6627 c050 73bf 5551 792e f50d 253f
000001c0: b87d bec6 d830 cbbf 43e8 6c9f a7f9 8dbf
000001d0: fadd 0c42 1a9c 89bf 3659 a436 00c3 2cbf
000001e0: e190 9e5c a951 04bf 8c0e a897 4781 51bf
000001f0: 7fd1 2bb2 c5da 27bf 5b4c 1b4a aeb9 bfbf
00000200: 5ce4 0a8d e7c8 843f b4f6 2978 4749 a4bf
00000210: ef9f 0fd3 fd3a 2e3f 4392 d6a5 c7ef 013f
00000220: 7c47 0378 1021 44bf ea74 d8f4 c27e 3b3f
0.9938832484604168 0.005034448523375466 -0.0050653354133771075 2.4893834626070046e-05 4.841611267872756e-06 0.009969587478496801 0.000718228197702072 -0.5729436596775721
0.9419836217293202 -0.049679743227238386 0.008892216601082607 0.009660695309891481 -0.003118671671506493 0.00025447145739082745 -0.1557437580647683 0.0018428609046793594
0.9554633641301422 0.0005621241071799229 -0.00040976016532739837 -0.0007972063303821293 -0.009467501725907598 0.6093258105437729 -0.047772148239039726 0.04253600076063239
0.984721656458233 -0.000219807101754447 0.003573370517831521 -6.511504120152124e-05 -0.26731141464082614 -0.01098757995432991 -0.0257986572518922 0.00010323223998514907
0.9998660651292294 -0.0015106593214920885 0.00023004973242789898 -0.10071675159069834 -0.0034848279421613817 -0.009261543170424323 0.00010468742576790548 -3.4660019303180036e-05
0.9995065091375858 0.000983954608132398 0.08882243593847446 0.0021819645025328268 0.042959274845244644 0.0007836384747999308 -6.916261087811223e-05 0.0005204584395863079
0.9985740569205687 -0.9480529135484329 -0.19219980287673105 -0.09456210967607973 -0.0029863027530619857 -0.0010798139851677876 -0.004715681649394886 0.0001606332582350193
-0.21242818550397913 -0.014636334946420365 -0.0125047732741299 -0.00021943452458889908 -3.875539876155451e-05 -0.0010684203285799302 -0.00018199599534053296 -0.12392701443904867
0.010148819915558764 -0.03962157575459227 0.0002306399196918547 3.4211426036355224e-05 -0.0006142931379378015 0.00041954288175978397

cov f8 [10, 10]
00000000: 9bcd d455 610a 8640 dd26 318d 0a5d 81c0
00000010: 9fa3 3f6b 71b7 93c0 3490 0e13 abbf 9740
00000020: 96cb fc69 8796 7340 f256 7c82 5d2a 31c0
00000030: bc66 fd3c f27e a140 2313 26ba 5b31 4cc0
00000040: d409 b9a3 7c47 80c0 62e8 dd51 8cec 7fc0
00000050: df1c 318d 0a5d 81c0 6764 b3eb 4510 b340
00000060: 7892 aa67 8c78 9040 68b2 270c b15a c0c0
00000070: a28d 90c5 8aa4 a340 9b3f 561c a41c 7e40
00000080: 1c4a 4d10 468a a3c0 e223 d9cc 2001 ae40
00000090: c5bf bd1e 40f7 8740 afc0 8f5d 3bb4 7440
000000a0: 0d47 3f6b 71b7 93c0 1622 aa67 8c78 9040
000000b0: 5461 eed9 ba47 c440 1d28 d72b 7a98 c5c0
000000c0: ff93 9b9d a797 a640 dd1c a29a 06a6 a640
000000d0: ac92 153c 8962 a7c0 ec02 c075 aada 8340
000000e0: 579b 6639 f6f3 7540 7ecc 61fe a8af 9e40
000000f0: ff51 0e13 abbf 9740 a6a8 270c b15a c0c0
00000100: 9f27 d72b 7a98 c5c0 0af9 2240 1088 ea40
00000110: fa11 046c 2149 d1c0 b8fa e81b 6bbf c4c0
00000120: 395d 123f 0a46 b940 20e2 d884 e1fd b140
00000130: 636a cbdf 6fad 65c0 be39 78c0 a690 87c0
00000140: 61dc fc69 8796 7340 1689 90c5 8aa4 a340
00000150: 066f 9b9d a797 a640 cb0e 046c 2149 d1c0
00000160: 76e1 f66a 7cb4 be40 9fdb 10f9 883a b140
00000170: f090 06ec 1c3e 4740 117f eacd 6eb0 7540
00000180: ef49 0780 b420 7fc0 017d d1ff b6f5 84c0
00000190: 5a9c 7b82 5d2a 31c0 b02c 561c a41c 7e40
000001a0: a012 a29a 06a6 a640 18f9 e81b 6bbf c4c0
000001b0: 0adc 10f9 883a b140 7c49 9cc2 691e af40
000001c0: efd5 049e e35e 7040 ed6e eecc 9910 9140
000001d0: c3e7 98a2 e9c5 67c0 ffc9 6d33 13be 74c0
000001e0: db50 fd3c f27e a140 db37 4d10 468a a3c0
000001f0: 7b2f 163c 8962 a7c0 4a92 123f 0a46 b940
00000200: b27f 00ec 1c3e 4740 c287 049e e35e 7040
00000210: fa3e 6f6c f94e db40 a8f9 1ecf f9e5 a140
00000220: 10fd 0636 5f79 95c0 3c76 063a b833 a6c0
00000230: 2e5e 2aba 5b31 4cc0 6f3e d9cc 2001 ae40
00000240: 8a85 c175 aada 8340 cfc1 d884 e1fd b140
00000250: 4433 eacd 6eb0 7540 6d6d eecc 9910 9140
00000260: 5391 1ecf f9e5 a140 aa6c 229a 96f2 d040
00000270: ef62 b1cc d663 9540 b578 dee5 50a8 89c0
00000280: 91d6 b8a3 7c47 80c0 1b7a bd1e 40f7 8740
00000290: 6380 6539 f6f3 7540 0601 cadf 6fad 65c0
000002a0: 2403 0780 b420 7fc0 41c9 98a2 e9c5 67c0
000002b0: b184 0636 5f79 95c0 bd47 b1cc d663 9540
000002c0: bd66 41d2 9398 8e40 91f6 e67e dc7f 39c0
000002d0: abcb dc51 8cec 7fc0 0874 8e5d 3bb4 7440
000002e0: 9a1b 62fe a8af 9e40 30ae 78c0 a690 87c0
000002f0: 8b04 d1ff b6f5 84c0 2080 6d33 13be 74c0
00000300: 0910 063a b833 a6c0 89e3 dfe5 50a8 89c0
00000310: 41d1 d37e dc7f 39c0 c63f d496 d238 a140
705.2975269913908 -555.6301521148667 -1261.8607606834046 1519.917064883758 313.40806006191394 -17.16548934493671 2239.4731215656193 -56.38561179026717
-520.9358591514706 -510.7842577617904 -555.6301521145759 4880.273127758038 1054.1371142055414 -8373.383183443177 2514.2710385487453 481.7900660866814
-2501.136843123719 3840.5640628677656 766.9063086342 331.26449352410685 -1261.8607606780163 1054.1371141989998 10383.459775731586 -11056.954462904536
2891.8273743265304 2899.012898508094 -2993.2680365315955 635.3332324028866 351.24761333542614 1963.9150328904211 1519.917064880137 -8373.383183438633
-11056.954462904307 54336.507829176335 -17700.52221776729 -10622.836789247915 6470.0400248983 4605.880933337408 -173.4199065182648 -754.0814217941877
313.4080600621583 2514.271038548216 2891.827374322226 -17700.522217764326 7860.4860071468775 4410.535050443285 46.48525762863744 347.02705184555185
-498.0440674099654 -670.7143551222108 -17.165489344767003 481.7900660864061 2899.0128985069023 -10622.836789247158 4410.535050443383 3983.206562885256
261.9305706204313 1092.1501958136753 -190.18476991524048 -331.8796877182612 2239.4731215630723 -2501.1368431215938 -2993.2680365498504 6470.040024910655
46.48525762581211 261.9305706192937 27963.89724331999 2290.9879083328015 -1374.3429795352895 -2841.859817697461 -56.38561179226632 3840.5640628708566
635.3332324141386 4605.880933329884 347.0270518444488 1092.150195813588 2290.9879083206556 17354.353157621495 1368.9597652165064 -821.0395009403788
-520.9358591499787 766.9063086321725 351.2476133313086 -173.41990651563555 -498.04406740893523 -190.1847699150185 -1374.342979528283 1368.9597652149234
979.0721783742407 -25.49945824755429 -510.78425775764725 331.2644935192661 1963.915032895026 -754.0814217975767 -670.7143551187049 -331.87968771718624
-2841.8598176855635 -821.0395009509385 -25.499458243096573 2204.4113069846962

epsilon f8 [1, 7]
00000000: 901e e641 b01b 153f 00f3 362c 1fe9 d93e
00000010: 7009 b501 b96e d63e 00a0 8431 5f31 813e
00000020: 0080 0ef7 3883 683e c0ef 53d5 71fd a33e
00000030: f05e ea83 f06c 8fbe
8.052123346235563e-05 6.177576043095391e-06 5.348327273781809e-06 1.2809678008010757e-07 4.565825307352618e-08 5.95748967185509e-07 -2.341385556172742e-07
